…
[2026-04-10 11:47:20]   Total parameters:     14,606
[2026-04-10 11:47:20]   Trainable parameters: 14,606
[2026-04-10 11:47:20] ======================================================================================================================================================
Layer (type (var_name):depth-idx)                  Input Shape               Output Shape              Param #                   Kernel Shape
======================================================================================================================================================
SignalJEPA_PreLocal (SignalJEPA_PreLocal)          [1, 62, 152]              [1, 2]                    --                        --
├─Sequential (spatial_conv): 1-1                   [1, 62, 152]              [1, 4, 152]               --                        --
│    └─Rearrange (0): 2-1                          [1, 62, 152]              [1, 1, 62, 152]           --                        --
│    └─Conv2d (1): 2-2                             [1, 1, 62, 152]           [1, 4, 1, 152]            252                       [62, 1]
│    └─Rearrange (2): 2-3                          [1, 4, 1, 152]            [1, 4, 152]               --                        --
├─_ConvFeatureEncoder (feature_encoder): 1-2       [1, 4, 152]               [1, 4, 64]                --                        --
│    └─Rearrange (0): 2-4                          [1, 4, 152]               [4, 1, 152]               --                        --
│    └─Sequential (1): 2-5                         [4, 1, 152]               [4, 8, 16]                --                        --
│    │    └─Conv1d (0): 3-1                        [4, 1, 152]               [4, 8, 16]                256                       [32]
│    │    └─Dropout (1): 3-2                       [4, 8, 16]                [4, 8, 16]                --                        --
│    │    └─GroupNorm (2): 3-3                     [4, 8, 16]                [4, 8, 16]                16                        --
│    │    └─GELU (3): 3-4                          [4, 8, 16]                [4, 8, 16]                --                        --
│    └─Sequential (2): 2-6                         [4, 8, 16]                [4, 16, 8]                --                        --
│    │    └─Conv1d (0): 3-5                        [4, 8, 16]                [4, 16, 8]                256                       [2]
│    │    └─Dropout (1): 3-6                       [4, 16, 8]                [4, 16, 8]                --                        --
│    │    └─GELU (2): 3-7                          [4, 16, 8]                [4, 16, 8]                --                        --
│    └─Sequential (3): 2-7                         [4, 16, 8]                [4, 32, 4]                --                        --
│    │    └─Conv1d (0): 3-8                        [4, 16, 8]                [4, 32, 4]                1,024                     [2]
│    │    └─Dropout (1): 3-9                       [4, 32, 4]                [4, 32, 4]                --                        --
│    │    └─GELU (2): 3-10                         [4, 32, 4]                [4, 32, 4]                --                        --
│    └─Sequential (4): 2-8                         [4, 32, 4]                [4, 64, 2]                --                        --
│    │    └─Conv1d (0): 3-11                       [4, 32, 4]                [4, 64, 2]                4,096                     [2]
│    │    └─Dropout (1): 3-12                      [4, 64, 2]                [4, 64, 2]                --                        --
│    │    └─GELU (2): 3-13                         [4, 64, 2]                [4, 64, 2]                --                        --
│    └─Sequential (5): 2-9                         [4, 64, 2]                [4, 64, 1]                --                        --
│    │    └─Conv1d (0): 3-14                       [4, 64, 2]                [4, 64, 1]                8,192                     [2]
│    │    └─Dropout (1): 3-15                      [4, 64, 1]                [4, 64, 1]                --                        --
│    │    └─GELU (2): 3-16                         [4, 64, 1]                [4, 64, 1]                --                        --
│    └─Rearrange (6): 2-10                         [4, 64, 1]                [1, 4, 64]                --                        --
├─Sequential (final_layer): 1-3                    [1, 4, 64]                [1, 2]                    --                        --
│    └─Flatten (0): 2-11                           [1, 4, 64]                [1, 256]                  --                        --
│    └─Linear (1): 2-12                            [1, 256]                  [1, 2]                    514                       --
======================================================================================================================================================
Total params: 14,606
Trainable params: 14,606
Non-trainable params: 0
Total mult-adds (Units.MEGABYTES): 0.15
======================================================================================================================================================
…
