…
[2026-04-15 00:04:08]   Total parameters:     18,192
[2026-04-15 00:04:08]   Trainable parameters: 18,192
[2026-04-15 00:04:08] ======================================================================================================================================================
Layer (type (var_name):depth-idx)                  Input Shape               Output Shape              Param #                   Kernel Shape
======================================================================================================================================================
SignalJEPA_PostLocal (SignalJEPA_PostLocal)        [1, 62, 536]              [1, 4]                    --                        --
├─_ConvFeatureEncoder (feature_encoder): 1-1       [1, 62, 536]              [1, 248, 64]              --                        --
│    └─Rearrange (0): 2-1                          [1, 62, 536]              [62, 1, 536]              --                        --
│    └─Sequential (1): 2-2                         [62, 1, 536]              [62, 8, 64]               --                        --
│    │    └─Conv1d (0): 3-1                        [62, 1, 536]              [62, 8, 64]               256                       [32]
│    │    └─Dropout (1): 3-2                       [62, 8, 64]               [62, 8, 64]               --                        --
│    │    └─GroupNorm (2): 3-3                     [62, 8, 64]               [62, 8, 64]               16                        --
│    │    └─GELU (3): 3-4                          [62, 8, 64]               [62, 8, 64]               --                        --
│    └─Sequential (2): 2-3                         [62, 8, 64]               [62, 16, 32]              --                        --
│    │    └─Conv1d (0): 3-5                        [62, 8, 64]               [62, 16, 32]              256                       [2]
│    │    └─Dropout (1): 3-6                       [62, 16, 32]              [62, 16, 32]              --                        --
│    │    └─GELU (2): 3-7                          [62, 16, 32]              [62, 16, 32]              --                        --
│    └─Sequential (3): 2-4                         [62, 16, 32]              [62, 32, 16]              --                        --
│    │    └─Conv1d (0): 3-8                        [62, 16, 32]              [62, 32, 16]              1,024                     [2]
│    │    └─Dropout (1): 3-9                       [62, 32, 16]              [62, 32, 16]              --                        --
│    │    └─GELU (2): 3-10                         [62, 32, 16]              [62, 32, 16]              --                        --
│    └─Sequential (4): 2-5                         [62, 32, 16]              [62, 64, 8]               --                        --
│    │    └─Conv1d (0): 3-11                       [62, 32, 16]              [62, 64, 8]               4,096                     [2]
│    │    └─Dropout (1): 3-12                      [62, 64, 8]               [62, 64, 8]               --                        --
│    │    └─GELU (2): 3-13                         [62, 64, 8]               [62, 64, 8]               --                        --
│    └─Sequential (5): 2-6                         [62, 64, 8]               [62, 64, 4]               --                        --
│    │    └─Conv1d (0): 3-14                       [62, 64, 8]               [62, 64, 4]               8,192                     [2]
│    │    └─Dropout (1): 3-15                      [62, 64, 4]               [62, 64, 4]               --                        --
│    │    └─GELU (2): 3-16                         [62, 64, 4]               [62, 64, 4]               --                        --
│    └─Rearrange (6): 2-7                          [62, 64, 4]               [1, 248, 64]              --                        --
├─Sequential (final_layer): 1-2                    [1, 248, 64]              [1, 4]                    --                        --
│    └─Rearrange (unflatten_tokens): 2-8           [1, 248, 64]              [1, 1, 62, 4, 64]         --                        --
│    └─Conv3d (spat_conv): 2-9                     [1, 1, 62, 4, 64]         [1, 4, 1, 4, 64]          252                       [62, 1, 1]
│    └─Flatten (flatten): 2-10                     [1, 4, 1, 4, 64]          [1, 1024]                 --                        --
│    └─Linear (linear): 2-11                       [1, 1024]                 [1, 4]                    4,100                     --
======================================================================================================================================================
Total params: 18,192
Trainable params: 18,192
Non-trainable params: 0
Total mult-adds (Units.MEGABYTES): 6.67
======================================================================================================================================================
…
